app/src/main/assets/gesture_frame_mlp.tflite (tflite, 203392 bytes, 8 tensors)

arith.constant f4 [559, 64]
00000000: f783 b9bd 6897 873d 459e 80be 34c4 dfbd
00000010: 9568 e9bb 1b9e 013d 94f0 14be 29e0 bebe
00000020: af0d c93d d1d6 1e3d f08a c0bd a377 edbd
00000030: ac8d 23be d8fa 1abe 6c7f 38bf af6f 6ebc
00000040: 1a92 a8bc 4377 03be 42c6 bcbe 955b f1be
00000050: ca41 bbbd 2699 ddbc 38ff 47be 7927 6cbd
00000060: 344c 25be d728 a1bd fed1 72bf 67c7 883d
00000070: 75b0 243d a9e2 a7bf d8e1 68bc 6f8a 2ebf
00000080: 2f09 f6bc a970 96bd 84ac dabd d67c c2bd
00000090: 9984 76bd d742 b2bd b607 843c c2ca c5bd
000000a0: 21e4 59be 3946 c7bc 848d 92be e361 8bbe
000000b0: 5784 71be 3b94 86bd d6e0 aebe 1659 98bf
000000c0: 8ef1 41bd 005d 673d b4ad febd 8154 29be
000000d0: a904 f83c b1ee cc39 d5c6 d3be 3f34 a1bd
000000e0: 6349 e3bd ce10 cabe ef3f 94bc 491c 82be
000000f0: dc7e 3cbf 2939 4b3d 90a8 7fbc af8d 13be
00000100: f20e c3bd dc06 a7bd 140d aebe 8fa2 2ebe
00000110: a325 3a3d 35e5 a4bd fbe6 5abe 8ff9 a5be
00000120: 5a6a c0bc 1cb0 3cbf 75de b7bd 3e47 0e3c
00000130: 5893 8dbe ec8a ae3d 3a25 65bd 7f56 2d3d
00000140: 9b05 9c3c 57fd 0dbe 82c5 3fbe a789 06bf
00000150: ca5d adbe ccde 7ebe 6ae4 b3bd badb 963c
00000160: 0064 8c3c d7fa 78be 6e91 24bf 7a58 983a
00000170: 6203 d7bd 49e1 6bbe 3df4 7ebc bf5b 63be
00000180: eb79 343c b0d5 0bbe 85d5 86bc 2fbd a6bd
00000190: 3722 42be 5905 993d 6347 1cbd d76a 6cbe
000001a0: 3f49 00be ed1f bcbe 62c1 c9bd f7ac 63be
000001b0: 84c3 2ebd 463b 93be 095a 7abd e6c2 aabf
000001c0: e47c 94be 293e 97bb bf64 64be 3fdc 8abc
000001d0: 0fbc c6bd 8d37 93bd d4ea 7abe 465a 83be
000001e0: 82f0 17bf d8b3 28be 647c f53b 08ab 8bbd
000001f0: fafd 62be 1775 80be 71be 8e3d 73de f5bd
00000200: bd18 903d 178e ea3c ac1c 7d3d 3416 08bf
00000210: 37f7 67bd f95d 3a3c 0cff a0bd 6ea1 24bf
00000220: 9510 b4bc ae64 f6be 7ba3 22be 05d1 73bd
00000230: 4ced 01be 85c3 803d 5955 8dbe 7cf9 55bd
00000240: b068 27bd 2644 b1be 105d 43bd da8b a9bd
00000250: 2555 86be b015 eebc ceb9 b8be ebe1 79bd
00000260: 6c8b 2d3d c825 07bd 989d 613d 4b75 37be
00000270: 090d aabe 2eb8 c5bd 687a 3bbe ae66 78bc
00000280: 0fa5 0fbe 4596 b03b 1d58 6cbe 45f7 39be
00000290: fc5b 4bbe 008f b0bd 8eae 34be cfb1 a0be
000002a0: 812e 17be 451f b6be 3ad9 57bd 1095 863a
000002b0: 6491 5dbd f888 3dbd 8262 8fbe 5216 adbe
000002c0: c3c8 d1bd f2e8 0b3d f5fb 37bc 8e4e d5bd
000002d0: 6c99 083c 4fcb 053e d044 edbd 2374 c0bc
000002e0: 30fd 0dbe 42e2 db3d 6f3f 98be de59 bbbd
000002f0: 429c ccbd 7886 65be 3094 01be e71f 98bd
00000300: e553 2ebe 1335 25bf 571e 6e3c 12c2 2ebd
00000310: f455 113d e67b 1abd b77a e6bd 131c 2cbf
00000320: 3686 1fbd ec27 b6be bf8b 75be 6f33 21bf
00000330: cad1 c2bc 0910 f3bc 8a84 cfbe 2ffe 0ebe
00000340: a3d9 eebd b729 14bf c4b4 cfbb d505 b8bd
00000350: d5d9 4dbf 2434 06be a6b8 9fbd 3ae7 b43d
00000360: 3811 7bbd dfe6 febd f360 98bd 0de9 e9be
00000370: 6478 6dbe a7b6 c4bd 9177 c5be 810b 88bd
00000380: c846 24bd 75dd d4bd de7e 333d c41a 44bd
00000390: 889e 0abf 19b1 c8bc bf2f c1bd 3928 f8be
000003a0: a764 a4be 742c ebbe bc35 67bc 2f1f 9b3d
000003b0: b074 a5be 876f aebe fee7 75bd 03f9 13bf
000003c0: 16f4 93bd 6ac2 363e 1306 dabb 8592 b5bd
000003d0: 6138 acbb dba6 393d d519 0fbe a499 433d
000003e0: dbaf f1bd b0ed 86be f64a 163e f37c 02be
000003f0: 2469 a33d 8c68 82be 4fc3 76be 3895 363d
-0.090583734 0.06620675 -0.2512075 -0.10926095 -0.007123063 0.03164492 -0.14544898 -0.37280396
0.09817063 0.038779084 -0.094015 -0.115950845 -0.15972012 -0.15134752 -0.7206943 -0.014552995
-0.02057748 -0.12838463 -0.3687001 -0.47140184 -0.09143408 -0.027050566 -0.19530952 -0.05765483
-0.1614235 -0.07869118 -0.9485167 0.06678658 0.040207345 -1.3116046 -0.014214002 -0.6817998
-0.030033676 -0.07345707 -0.10677436 -0.09496467 -0.06018505 -0.08704155 0.016116958 -0.096578136
-0.2127843 -0.024325477 -0.28623593 -0.2722312 -0.2358564 -0.065712415 -0.3415591 -1.1902187
-0.047349505 0.056485176 -0.12435475 -0.16536142 0.03027566 0.0003908775 -0.41362634 -0.07871293
-0.11097982 -0.39465946 -0.018096892 -0.25412205 -0.7363107 0.04961506 -0.015604153 -0.14409517
-0.09524335 -0.08155605 -0.33994353 -0.17054199 0.04544605 -0.0805153 -0.21377175 -0.3241696
-0.023488212 -0.7370622 -0.08977977 0.008683978 -0.27651477 0.08522591 -0.055943705 0.042318817
0.019045642 -0.13866173 -0.18727687 -0.5255379 -0.33860618 -0.24889678 -0.08783801 0.01841532
0.017137527 -0.24314438 -0.6428441 0.0011623048 -0.10498692 -0.23035158 -0.015561161 -0.22202967
0.011015396 -0.13655734 -0.016459236 -0.08141553 -0.18958364 0.07471723 -0.038154017 -0.23087631
-0.12527941 -0.36743107 -0.09851338 -0.2223395 -0.042666927 -0.2875616 -0.06112102 -1.3340728
-0.29001534 -0.0046155644 -0.22304057 -0.016950725 -0.09703838 -0.0718833 -0.24503642 -0.2565481
-0.5935136 -0.16474855 0.007491635 -0.06819731 -0.22167197 -0.25089332 0.069699176 -0.120053194
0.070359685 0.028632207 0.06179492 -0.5315888 -0.056632247 0.011374944 -0.07861146 -0.6430882
-0.021980563 -0.48123688 -0.15882675 -0.05952551 -0.12688178 0.062872924 -0.27604178 -0.05223988
-0.040871322 -0.34622306 -0.047696173 -0.08278628 -0.26236835 -0.029063076 -0.36079258 -0.061006468
0.04236929 -0.032995015 0.055081934 -0.17915837 -0.3321307 -0.0965427 -0.18308413 -0.0151611995
-0.14027809 0.0053890073 -0.23080488 -0.18160732 -0.19859308 -0.08621025 -0.17644712 -0.31385657
-0.14763834 -0.35570732 -0.052697398 0.0010267813 -0.054093733 -0.0462732 -0.28004843 -0.33806092
-0.102433704 0.0341577 -0.011229505 -0.10415374 0.00833736 0.13065837 -0.115853906 -0.023492878
-0.13866115 0.10736515 -0.29735896 -0.09148 -0.09990741 -0.22414577 -0.12654185 -0.0742796
-0.1702419 -0.6453411 0.014533601 -0.04266555 0.035482362 -0.037715815 -0.11253875 -0.6723034
-0.038946353 -0.35577333 -0.2397909 -0.62969106 -0.023781676 -0.029670732 -0.40530807 -0.13964151
-0.11662605 -0.5787615 -0.0063386876 -0.08985487 -0.8041051 -0.13105828 -0.07798891 0.088331655
-0.061295718 -0.12446379 -0.074403666 -0.45685616 -0.23190457 -0.09605151 -0.38567784 -0.06642819
-0.040106565 -0.10393802 0.04382216 -0.04787709 -0.5414815 -0.02449851 -0.09432935 -0.48468187
-0.32108042 -0.45932353 -0.014111932 0.07574307 -0.32315588 -0.34069464 -0.060035698 -0.57801837
-0.0722429 0.178476 -0.006653556 -0.08865837 -0.0052557443 0.04532514 -0.13974698 0.047753945
-0.1180112 -0.26353216 0.14677033 -0.12742977 0.07979038 -0.25470388 -0.24097942 0.0445759

arith.constant1 f4 [64, 128]
00000000: 1233 2c3e 4c79 20be 705e b13c a106 193e
00000010: ef4b 123e 0788 08bd 4acb a8bd a194 5d3d
00000020: 5d4c 303e 97dc 253e cf77 d9bd ba85 513b
00000030: 0523 0b3e 371f 2bbd 3c57 f43a 3aa9 80be
00000040: b820 4c3e adff 283d 3b94 5ebe 87c4 42be
00000050: ded3 973e 2823 7ebe 5094 94bd 5749 e6be
00000060: e88f 843d 601b 95be d0c9 953e 19c6 bdbc
00000070: 0ef8 d6bd 9b96 f23d 3af5 b13e f388 813e
00000080: f018 4dbe 908c ba3e 0da5 1b3e b5fa f7bd
00000090: ec03 21be 06c7 a0be 5657 8ebc 9c15 2c3e
000000a0: 097b 053d 2caf d93e fcca 863e b33b 8ebd
000000b0: 23e4 e5bd 16b6 fe3e 7c1e 5bbd 9d4f 6ebe
000000c0: 814e 40be 2e62 5ebe 049b f5bd ff76 523e
000000d0: 6287 5a3e 9c46 93be 46b5 5dbe 9a4a b1bd
000000e0: cc6b 81bd 6b33 b63d cded 94be 7d6c 883e
000000f0: c01f 4ebe e867 12be bdc6 b3bd 679d 723c
00000100: 3657 d53d 7f68 7dbe 909b 853e 65ab b63b
00000110: a12b d3bd f887 73be 2cd1 babe fdbe f9bd
00000120: 0060 ac3e 2c50 ce3d bdec 1e3e 0cff d1bc
00000130: a6b5 cb3c bfea 043e 3a7e 2cbe c1bc 893e
00000140: 1d1c 783d 2803 21be 0a3e 5bbe 04b2 fdbc
00000150: 2fa1 a13e 1805 2cbe a9cc 3ebe 6e28 f2bd
00000160: 0896 c6bc 4262 8a3d e1b3 e5bd 44c7 02be
00000170: e62d f73c b797 aabe ea57 a53d 2929 71bd
00000180: 7b8c b6bc 43c3 2cbe 401f 9f3d 0639 35bd
00000190: b381 ee3b f535 bfbd cca5 f03d a2aa 57be
000001a0: ede6 93be 2ed3 c93c 859c d33e 3147 e4bd
000001b0: e50c 96bd eb7d b73d 4047 043e 5ca2 1f3e
000001c0: 536b 943d 8fac 3dbe 4dfc 333e 940e fb3c
000001d0: fd85 9e3e 2bc5 053e febb d2bd 92b9 953c
000001e0: 5c39 88bd b50f 723e d207 f0bc 0827 5c3c
000001f0: 0d50 d7bd 07e1 70be 9f01 6cbd 2c6a 0a3e
00000200: 0dd2 3c3d 141b 033e 211f 9e3d f8a0 5c3d
00000210: ecd6 0d3d d9ff 63be 498b 87be 28df 123e
00000220: 4357 00be a728 1e3e 39d1 5a3d 84e9 903e
00000230: 6f34 e53d 1b70 29bd aa2f 8cbe 2523 65bd
00000240: 1450 fa3c 0437 94bd 21a3 8dbb ab9f 323e
00000250: cf03 07be 4bec ec3d ad0b b23e 1a50 cabe
00000260: ab13 0a3c b16b d3bd fca0 5cbe e8c4 ab3d
00000270: 952d c23d c6b1 05be 1fab 6f3e 948d 8e3e
00000280: 760b 6dbd 4b2a fd3d 4d6e 20bd 518c 0cbe
00000290: 4b78 d7bd a1c2 6abd f049 77be 50bd 003c
000002a0: d63b 91bd bb82 853e 8b47 ca3d 3aa1 bd3c
000002b0: a9ca 25be aad8 113e 6024 0abd a630 043e
000002c0: 75ac f3bc 7f91 843d 2c2e 50be 3ef8 bc3e
000002d0: d2ad f13d 7a70 993d e233 553d 9b89 1abe
000002e0: 68ac 95bd 7a7b 9ebd 8b2f 743d b61f e2bd
000002f0: a175 65bd 6503 5e3e 8d6d 4f3e ac0d a63c
00000300: 9f7f cfbd 5877 223e 2567 843d ca1e 4b3e
00000310: 3e4d 3a3e 936e 863e 86b2 bc3c 4006 d93b
00000320: ab85 693e 9984 4c3c 307c cabd 9621 273e
00000330: a42d 31bd a9bc 29be bba5 46be beed 94bd
00000340: 408e 1ebe 41d5 64bd 1958 0b3e 0ca5 3b3e
00000350: 78c1 5ebe cf99 693e 5272 0a3d 7016 033e
00000360: ff10 fdbd 5a65 923e 22b7 5a3e 4b40 a63b
00000370: f1bc 383c 116b 6abe 4556 353e 5924 033e
00000380: 2224 c53d 383f bdbd 52b2 423e 9a60 823d
00000390: d942 04bf d240 66be 233f a3be a9da e83c
000003a0: cf81 93be 82b2 40be 93fc 903e d69f 21bd
000003b0: c381 a43d 223f 343d e090 853e 74fc 1c3e
000003c0: 2226 323e ff74 8a3e 66a5 1ebe 840a b83d
000003d0: bb5d c33d f611 f6bd ad42 15be f46f 7dbd
000003e0: 2ca1 da3e 1c6a 85be bba5 903e da1d 25be
000003f0: 491e e7bc 3ffb 593e a743 823e 22ea 783e
0.16816357 -0.15671271 0.021651477 0.14943935 0.14286779 -0.03333285 -0.08241899 0.05409682
0.1721663 0.1619743 -0.10618555 0.0031970576 0.13587578 -0.041777816 0.001864172 -0.2512911
0.19934356 0.041259456 -0.21736233 -0.19020282 0.2965383 -0.24818099 -0.07254851 -0.4497783
0.064727604 -0.29122448 0.29255533 -0.02316575 -0.104965314 0.11845132 0.34757406 0.25299796
-0.20029044 0.36435366 0.1519968 -0.121083654 -0.15724152 -0.31401843 -0.01737563 0.16805118
0.03258804 0.42516458 0.2632674 -0.069449805 -0.11225154 0.49748296 -0.05349587 -0.23272558
-0.18779947 -0.2171714 -0.119924575 0.20553206 0.21340707 -0.28764808 -0.21651182 -0.08656807
-0.06319389 0.08896526 -0.29087678 0.2664527 -0.20129299 -0.1429745 -0.08778141 0.014808035
0.10417025 -0.24746893 0.26095247 0.005574631 -0.10311056 -0.23782337 -0.3648771 -0.12194631
0.33666992 0.10073885 0.15519996 -0.025634311 0.02486689 0.12980174 -0.16845027 0.2690182
0.060573686 -0.1572386 -0.21410385 -0.030968674 0.31568286 -0.16798818 -0.18632759 -0.118241176
-0.024241462 0.067570224 -0.1121595 -0.12771326 0.030173253 -0.33318874 0.08073409 -0.058877144
-0.022283783 -0.16871361 0.07769632 -0.044243835 0.007278645 -0.09336463 0.11750373 -0.21061185
-0.2888712 0.024636831 0.41330352 -0.11146391 -0.07326678 0.08959564 0.12917805 0.15589279
0.07247033 -0.18522857 0.17576714 0.0306466 0.309616 0.13063495 -0.10289763 0.018276963
-0.066515654 0.23638804 -0.029300604 0.01343704 -0.10513315 -0.23523341 -0.057618733 0.13517064
0.046098758 0.12803298 0.07720781 0.05386445 0.034628794 -0.22265567 -0.26473454 0.1434294
-0.12533288 0.15445195 0.053422187 0.28303158 0.111916415 -0.041366678 -0.27380115 -0.05594172
0.030555762 -0.07237056 -0.004322425 0.17443721 -0.13185047 0.11568507 0.34774533 -0.39514238
0.008427541 -0.10323275 -0.21545786 0.08387166 0.0948135 -0.13056096 0.23405121 0.2784239
-0.057872258 0.12361582 -0.03916769 -0.13725401 -0.10520991 -0.05731452 -0.24149299 0.007857636
-0.07091491 0.26076302 0.09876927 0.023148168 -0.1619059 0.14242807 -0.033726096 0.12909183
-0.02974532 0.06473064 -0.20330113 0.36908144 0.11800732 0.07492156 0.052051432 -0.15091555
-0.073082745 -0.07738395 0.059615653 -0.11041205 -0.056020383 0.21680982 0.20256634 0.020270191
-0.10131764 0.15865839 0.06464986 0.19835964 0.18193528 0.26256236 0.023034345 0.0066230595
0.22804897 0.012482786 -0.09886968 0.16321406 -0.043256417 -0.16575874 -0.19399159 -0.07271908
-0.15483952 -0.055867437 0.13607825 0.18324679 -0.2175349 0.2281258 0.03380043 0.12801528
-0.123567574 0.2859295 0.21358922 0.0050735823 0.011275516 -0.22892405 0.1770869 0.12806834
0.096260324 -0.09240574 0.19013336 0.063660815 -0.516645 -0.22485664 -0.31884107 0.028424578
-0.28809974 -0.18818095 0.283177 -0.039459072 0.080325626 0.04400552 0.26087093 0.15330678
0.17397359 0.27042386 -0.15492782 0.08986381 0.09539362 -0.120151445 -0.14576216 -0.061874345
0.4270109 -0.26057518 0.28251442 -0.16124669 -0.028212683 0.21287249 0.2544224 0.24308065

arith.constant2 f4 [128, 42]
00000000: f66f c1bd 129d 143e f0eb 82be 9123 a33d
00000010: 6452 2dbe aec9 c43b 81f2 36be d3e9 81be
00000020: da8a 5cbe dc5c 3fbe 1735 3f3e 3257 74be
00000030: cc94 553e 5dd3 86be 0648 cf3d 4f0d b83c
00000040: 5415 583e 92c5 1a3e 3a97 fd3e fad9 d3bd
00000050: 3b9e a0bc 75d5 933c b6d2 3fbe 197f c7bc
00000060: d5fe e03d 5cca 8dbd 4b68 a23e 60e7 09be
00000070: 5d41 c43c cd31 85be 592f a7bc 3d8c 30bd
00000080: df0c c1be 2dcc 8a3e a969 1bbe 52b8 f33d
00000090: 42b6 acbe e766 85be 18d0 d0be 747e b6bd
000000a0: 4ed4 c2be 8247 f3bd 2794 3fbe bec7 2f3e
000000b0: e5d8 433e ba19 09bd 1466 a23e f7b3 e5bd
000000c0: 9564 6f3e bdc1 073d 4eb1 d63e 3bdd ffbc
000000d0: 0727 673e 4e40 84bd 6bc2 09bd 4bdb 0ebe
000000e0: 9c90 06be 4398 743e 1dd3 aabd 9ba9 b53d
000000f0: 48f0 f8bd b392 a1be ca13 acbe bbe3 64be
00000100: 1388 3abe cfa7 843e 1a03 56be 8ef1 5b3e
00000110: 9ad8 1abe 3130 bdbe 199e 80bd 6df2 1abe
00000120: b023 18be 968d 9c3d 768e c7be af72 7abd
00000130: 8434 d3bd f185 b5be 9ba3 b5be 063c b1be
00000140: 3427 65be 16d0 babe 7e49 dfbe b367 3dbe
00000150: c4ea 133e 5905 b4bd f6be 163e a68e 0b3e
00000160: 8262 0fbd 79bc 543d f80b 3fbe 4d9c 5a3d
00000170: f52c 9e3c 876c 18be 7d9b 6ebd 8632 ddbc
00000180: 5901 573e 9203 c9bc 83e8 09be 0a11 d1b9
00000190: b13b 813d ec24 aa3e 38fe a03e 29b1 5fbc
000001a0: 6485 6bbd 9fc3 28be c0d7 993e 08fb 233c
000001b0: 7511 dd3e 6f48 2bbc 0c8a a83d 6716 2fbe
000001c0: 71fd bd3d 293c d3bd 371e f33d 82f0 673e
000001d0: b845 6d3e 4076 653e 4255 1e3e 892a eebd
000001e0: 20c2 65bd 50ec 923e a771 263e dd85 8d3e
000001f0: a2ba c93d cce6 903e 0c70 0abe 9537 1abe
00000200: 01ba bbbe aaa5 d03e 36bc 64bc ba75 6c3e
00000210: a7a0 3dbe a006 05be 329b 82be fd93 00be
00000220: 174f 293d a1a8 b1be 2352 943e 185c 1e39
00000230: 41c8 bc3c 3f9d 233e dc27 283d d903 143e
00000240: 4b1d 1fbe 2ebd 64be 440e c73d bed4 7fbe
00000250: 91a3 c7bd 6655 0abe 61c9 eb3d 7506 e63d
00000260: a216 9e3d f4e5 34bd 5205 38bd b1d0 38be
00000270: 4199 64be 3aa9 79bd 7d91 80be 947e 8f3e
00000280: 99bb ee3c 47ed d1bd 7f70 b8bd 2158 a5be
00000290: a909 6bbd 1293 23bd 31e4 3ebe fe51 413e
000002a0: daeb c2bd a43d 1e3d ee71 4bbe 38a3 8dbe
000002b0: 1555 33be 759d 9abe f1aa 103e 75b9 c8be
000002c0: a07b c4bb 7419 16be c853 d3bd 7209 12be
000002d0: d21b 833e 8f05 70bc 4f6d 593e f10f 4ebe
000002e0: 7d96 0b3d 30c9 30bc 4e60 c63e 494b 64bd
000002f0: ce8b 6b3e 8d2d a9be d79f 53bd 5398 40be
00000300: 0174 9dbe b911 a83c 3f83 d73e 4924 0dbd
00000310: 8baa fe3d e26f a3be b520 22be ba0a 8abe
00000320: 7e08 35be 8476 db3d 5b86 703e 7a13 dcbb
00000330: 259d 3f3e ac7f b2be b5cd 1fbe 40e8 a7bd
00000340: e18e 76be b7b4 10be 8033 20bb 80ec 1d3e
00000350: 01ce f7bd 9f63 0abe f46a 88bc eab4 d8bc
00000360: aeee 93be 8ea7 89be 4bf1 98be 8fb1 8fbe
00000370: a1be 02bd 247f 37be 45b9 76be f349 43be
00000380: 6f60 96be 8a70 41be 437a 33be d483 e53d
00000390: b85f 8fbe 2ac1 cbbe 368c 903d 778b 103d
000003a0: 0a06 2ebe 565e c33e a06c 383e 23cc 523e
000003b0: d74c afbd 9962 e7bc 587b 04be d75f 8f3e
000003c0: 7e0a edbd 237b 773e 0177 303b 72d2 853e
000003d0: ff9a bdbc d4b0 8abe 9d50 763c f06b 893e
000003e0: a9db 893c eed2 003e f63d 2bbe d899 a23d
000003f0: fcaa 103e ba13 10be e7da 3fbd 65bf 84bd
-0.09445183 0.14513043 -0.2557063 0.07965768 -0.16925961 0.0060054874 -0.17865945 -0.25373706
-0.21537343 -0.18687767 0.18672596 -0.23861387 0.20857543 -0.26333132 0.10121159 0.022467284
0.21101886 0.1511443 0.4952944 -0.1034431 -0.0196067 0.01804612 -0.18732724 -0.024352597
0.10986105 -0.069233626 0.31720194 -0.13467169 0.023956949 -0.26014557 -0.02040832 -0.04310249
-0.37705132 0.271089 -0.15177025 0.11900391 -0.33732802 -0.2605507 -0.40783763 -0.08910838
-0.380526 -0.118788734 -0.1870886 0.1716604 0.19125707 -0.0334718 0.31718504 -0.11215966
0.23378213 0.033143748 0.41932148 -0.03123342 0.22573482 -0.06457578 -0.033632677 -0.13950841
-0.13141102 0.23886208 -0.08341048 0.0887024 -0.12155205 -0.31557235 -0.33608848 -0.22352497
-0.1821597 0.25909278 -0.2089962 0.21478865 -0.1512169 -0.3695083 -0.06280155 -0.1513154
-0.14857364 0.07644193 -0.38975877 -0.061144527 -0.10312751 -0.35453752 -0.35476384 -0.34616107
-0.22378236 -0.36486882 -0.43610758 -0.1849659 0.14445025 -0.087900825 0.14721283 0.13628635
-0.035006054 0.051937554 -0.1865691 0.053371716 0.019308547 -0.1488515 -0.058253754 -0.02700163
0.20996608 -0.024537835 -0.13467602 -0.00039876282 0.06310213 0.33231294 0.31443954 -0.013653078
-0.057500258 -0.16480874 0.30047417 0.010008581 0.4317738 -0.010454281 0.08229455 -0.1709839
0.09276856 -0.10314209 0.118709974 0.2265034 0.23171127 0.2240839 0.15462211 -0.11629207
-0.056093335 0.28695917 0.16254292 0.27641192 0.098500505 0.28301084 -0.13519305 -0.15060265
-0.36665347 0.40751392 -0.013960889 0.23091784 -0.18518315 -0.12990808 -0.2550903 -0.12556453
0.04133519 -0.34698966 0.28968915 0.00015102362 0.023044707 0.15977953 0.041053638 0.14454593
-0.15538518 -0.22337791 0.09719518 -0.24983498 -0.09747995 -0.1350914 0.11513019 0.112317
0.077191606 -0.044164613 -0.04492695 -0.1804836 -0.22324087 -0.060952403 -0.25111 0.2802626
0.029142188 -0.10250335 -0.09005832 -0.322938 -0.05738226 -0.03993518 -0.18641736 0.18878934
-0.09517641 0.038633004 -0.1986768 -0.2766359 -0.17512925 -0.30198255 0.14127709 -0.39203992
-0.0059961826 -0.14658147 -0.103187144 -0.14261416 0.25607163 -0.014649763 0.21233104 -0.20123269
0.034079064 -0.010790154 0.3874535 -0.05573586 0.2300255 -0.33042565 -0.051666107 -0.18808107
-0.30752566 0.020516263 0.4209232 -0.034458432 0.12434872 -0.31921297 -0.15832789 -0.2696131
-0.17679021 0.107159644 0.23488753 -0.006716189 0.1871229 -0.3486303 -0.15605815 -0.08198595
-0.24077941 -0.14131437 -0.002444476 0.15422249 -0.12099839 -0.13514565 -0.016652562 -0.026453454
-0.28893036 -0.26885647 -0.29871592 -0.28065154 -0.03192008 -0.17919594 -0.24094112 -0.19071178
-0.29370448 -0.18890586 -0.17527108 0.11206785 -0.28002715 -0.3979581 0.07057993 0.035289254
-0.16994491 0.3815791 0.18010187 0.20585684 -0.08559578 -0.028245257 -0.12937677 0.28002807
-0.11574267 0.24168067 0.00269264 0.2613712 -0.023145197 -0.27088034 0.015033868 0.26840162
0.016828375 0.12580463 -0.16722855 0.079394996 0.14127725 -0.14070025 -0.04683962 -0.06481818

arith.constant3 f4 [1, 42]
00000000: 7f96 184b 7f96 184b 48bc ea3f 2235 0540
00000010: 7e7f 823f 8744 873f 4fa6 383f 239d 3f3f
00000020: ddf1 0e3f 28d3 1d3f 6c6a b23f 4854 cc3f
00000030: 7597 8f3f 91d7 863f 4ef9 803f 6adf 5a3f
00000040: 4584 6c3f 5fa2 3c3f 164f ea3f 425f df3f
00000050: dfc1 983f 0aa0 873f 9166 883f d15a 5e3f
00000060: 5286 793f 54b7 403f b979 c53f 47d4 cf3f
00000070: e230 843f 437b 863f c7ef 693f d679 663f
00000080: 7bf7 523f a5ca 4c3f fedf 943f 18f3 b63f
00000090: e84c 573f 120e 843f b2aa 3c3f 7be7 683f
000000a0: a2f6 273f 5cfe 533f
9.999999e+06 9.999999e+06 1.8338709 2.081368 1.0195158 1.0567788 0.72128767 0.74849147
0.55837804 0.61650324 1.3938727 1.5963221 1.1218096 1.0534536 1.0076082 0.8549715
0.9238933 0.7368526 1.8305385 1.7450945 1.1934165 1.0595715 1.0656301 0.86857325
0.9747058 0.75279737 1.5427772 1.6236657 1.0327418 1.0506366 0.91381496 0.90029657
0.82408875 0.7999671 1.1630857 1.4292936 0.84101725 1.0316794 0.7369796 0.9097821
0.65610707 0.82809997

Const_1 f4 [1, 42]
00000000: 0000 0000 0000 0000 9ad1 e33d 1d0e 8cbe
00000010: d65c 643e 8b7d 09bf ed16 9e3e ced7 31bf
00000020: 0f31 b93e 0070 4abf aac7 363e c199 33bf
00000030: 51e6 903e 55fb 5bbf 2e1b ad3e f8f6 65bf
00000040: d070 bc3e abc3 6cbf 7b84 1a3e 0a8a 17bf
00000050: e093 8a3e abfa 34bf de13 a13e 55c4 31bf
00000060: 0118 a83e 6597 2fbf 93ca fc3d 1889 e8be
00000070: 3867 6d3e 6d05 0abf f123 863e be21 02bf
00000080: cbd7 863e 51c9 f9be 580e c73d 0670 9cbe
00000090: 9979 303e 56c8 bebe 4c7b 473e 828b bbbe
000000a0: aa2f 4b3e a33c b8be
0.0 0.0 0.11123963 -0.27354518 0.22301039 -0.5370719 0.30876866 -0.69469917
0.3617024 -0.7907715 0.17849603 -0.70156485 0.28300717 -0.8593038 0.338098 -0.8982997
0.3680482 -0.92486066 0.150896 -0.59195006 0.27065945 -0.7069499 0.3146047 -0.69440204
0.32830814 -0.68590385 0.123433255 -0.45417094 0.23183906 -0.5391453 0.26199296 -0.50832736
0.26336512 -0.48786405 0.09719533 -0.30554217 0.17233886 -0.3726222 0.19480628 -0.36629874
0.19842401 -0.35983762

sequential_1/dense_1_2/BiasAdd/ReadVariableOp f4 [64]
00000000: 3ae3 383d b045 6fbb f2ac 373d adb3 9b3d
00000010: 4015 ee3d ad6b 203d e3be 0a3d dddd 3f3d
00000020: dc3f 443d 8a41 8ebd bb4f ff3d d671 e13d
00000030: 5fd8 ba3d 0d74 4a3e f98e 833e 3d6c e1bd
00000040: be65 0b3e 57d4 153e 9ad4 fa3d 2678 4b3e
00000050: ecaa 8f3c 1235 2f3c cb39 b53d f44d c93d
00000060: 21de 293e 17a0 963c 7604 953d e72a 843d
00000070: 0e52 d53d 7d2f e23d e82d 933d 16f2 543e
00000080: 400c b2bc dc92 ae3d 69f3 223d 34f0 1c3e
00000090: 43c4 9ebd b49a 8a3d ad9c d83d f272 d83d
000000a0: 2931 e63d bdce 0d3e b06a 163c 2be3 9e3d
000000b0: e0d2 fe3a 3284 ebbc c319 943e 4db6 f23d
000000c0: 2abb 3a3d f0bd 5e3d 80c8 8f3c 8f30 6c3e
000000d0: 177c ecbc c549 963d 5665 4bbd a8ac acbc
000000e0: 8e64 0fbd 9497 783d 30ae 0d3e 9046 39bd
000000f0: 655f f83d 5e33 bb3c 5a75 dd3d e6af 923d
0.045138575 -0.0036510043 0.044842668 0.0760263 0.11625147 0.039165188 0.03387345 0.046842445
0.047912464 -0.06946094 0.12466379 0.110080406 0.09123301 0.19770832 0.25695017 -0.11006973
0.1361303 0.14631782 0.12247582 0.19870052 0.017537557 0.010693805 0.08848914 0.098293215
0.16588642 0.018386884 0.072762415 0.064534955 0.10416041 0.11044214 0.0718649 0.20795473
-0.021734357 0.08524105 0.039782915 0.15326005 -0.07752278 0.067677885 0.105767585 0.10568799
0.11239845 0.13848396 0.00918071 0.077581726 0.0019441508 -0.02874956 0.28925905 0.11851177
0.04558865 0.054380357 0.01755166 0.23065399 -0.028867764 0.07338289 -0.04965719 -0.021078423
-0.035008006 0.06069143 0.13835979 -0.04523331 0.1212757 0.022851642 0.10813399 0.07162456

sequential_1/dense_1/BiasAdd/ReadVariableOp f4 [128]
00000000: 0901 553e d698 203e b115 593e a7c8 e73d
00000010: c5e0 1b3e 513e b13e 0a92 ac3e b2fa 973e
00000020: bae5 903d 5a9b 773d 3285 273e 3533 d73d
00000030: 600d f33d 7dac 223e 0f0a fe3d 5737 063e
00000040: d787 343e f9dc 703d 117e 323e 16ee 993c
00000050: fa18 f5bc d44a bb3d a707 a03d 1071 033f
00000060: 2904 a03d e104 9e3e 1045 ca3d c902 263e
00000070: 0c4b 153e 29b0 733d 91f2 8d3e ddfb c13d
00000080: c19c 473e 2b9a e83e c221 903e abb6 583e
00000090: 46c6 273d c91a 003f 7cb2 c13d 74d9 cb3d
000000a0: 9cd2 cb3d 76f4 913e 6800 073e 95bc dd3d
000000b0: bfd5 b13d 96b4 0f3e 3bee a23e e9a5 eebd
000000c0: 415a 7c3e 3529 333e 98bc 7e3e 1b67 fc3e
000000d0: 9ff7 493e 1cca ae3d 1db8 3d3d 7ccc 893e
000000e0: 5856 be3c a78a 393e 1abc b43d bb05 733e
000000f0: 0b28 dc3d 27b6 3b3e 82d4 a13e d22d 283e
00000100: 8c1f ec3d 23c6 1b3e 491f c33d 8f93 3b3d
00000110: 1acc 923e 75c5 ba3e cb56 ed3d 8617 7a3d
00000120: e5e9 a53c 9f9d 803e adaa 2c3e c01f 053e
00000130: b3a5 fb3c 1372 c0bb 5a23 83bd 48c7 8d3e
00000140: 1eed 3f3e 240d 0e3e fcd3 843e 25c4 793e
00000150: 0440 9b3e 0a56 053e 5049 c63c bd9d 513e
00000160: faf0 9e3d a6ea 0b3e 9f7c 193e 08aa 38bd
00000170: 732c a3bd 8e9c 623e 2139 693e cd5a f63d
00000180: 80f0 8c3e f301 2f3e b11e 5d3d 32ef 813d
00000190: 27a8 073e 3146 f43e c5b0 c33e 5947 113e
000001a0: cc8f 693d 4ebf 3e3e 5c1f 833e 0ea9 0dbe
000001b0: 5ebb 343e ea97 2bba a436 62bd eb28 e7bc
000001c0: a8c0 503d 44d8 b8bc 91db 153e cd19 953d
000001d0: 716b 0f3e 3724 9b3e 8460 293e f576 483e
000001e0: 351d a73c 0ec0 003e a311 1ebe 17e2 4a3e
000001f0: 6963 b43d 30d4 a8bc 7405 f4bb b1e4 853e
0.20801176 0.15683302 0.21199681 0.11317568 0.15222462 0.34617856 0.3370517 0.29683453
0.07075067 0.06045089 0.16359404 0.10507814 0.118677855 0.15886112 0.12404262 0.13107048
0.17629944 0.058804486 0.17430903 0.018790286 -0.029919136 0.09145132 0.078139596 0.51344395
0.078132935 0.30863097 0.09876454 0.16212 0.1457941 0.05949417 0.27724126 0.09471867
0.1949339 0.4543012 0.28150755 0.21163432 0.040960573 0.5004087 0.09457871 0.09953585
0.0995228 0.2850682 0.13183749 0.10826985 0.08683347 0.14033732 0.3182238 -0.116527386
0.24643804 0.17496188 0.2487663 0.49297413 0.19723366 0.08534643 0.046318162 0.26913822
0.023234531 0.18119298 0.0882494 0.23732655 0.10749825 0.18331204 0.31607443 0.16423729
0.115294546 0.15212302 0.095274515 0.04579502 0.28671342 0.36478773 0.1158882 0.06105759
0.020253131 0.25120255 0.16861983 0.13000393 0.03071866 -0.0058729737 -0.06403227 0.27691102
0.18742797 0.138722 0.2594298 0.2439123 0.30322278 0.13021103 0.02420488 0.20470329
0.077608064 0.1366373 0.14988945 -0.04508403 -0.079674624 0.22130033 0.22775699 0.120290376
0.27527237 0.17090587 0.053984348 0.06344451 0.13247739 0.47709802 0.38220802 0.14187373
0.0570219 0.18627664 0.25609863 -0.1383402 0.176496 -0.0006545769 -0.05522789 -0.028217753
0.05096498 -0.022564061 0.14634539 0.07280312 0.1400583 0.30301067 0.16540724 0.19576629
0.02039967 0.12573263 -0.15436415 0.19812809 0.088080235 -0.020608991 -0.007446939 0.2615104

sequential_1/dense_2_1/BiasAdd/ReadVariableOp f4 [559]
00000000: b60e c7bb b711 82ba 26ab 68bd 967e ed3c
00000010: 05e9 83bc 4414 febc 74f5 723b 4287 64bd
00000020: 32be 813c 5761 25bb 58af c03c 2ad4 dc3b
00000030: 0a9b df3c 1950 253c 6d0b 603c 3aa5 58bd
00000040: 91ab 203c 54c8 103d 87fb 663c 916d 0fbb
00000050: fd48 a03c cca4 f83b eda0 f33b ed08 253d
00000060: 8e87 9d3c 946f 363d 86e0 2d3d 89cb 423d
00000070: 5c55 96bd dddb 2c3c e74d 3f3c a078 96bc
00000080: e389 cf3c 1b62 d3bb 3d43 313d b278 d6bb
00000090: 2073 03bc 2d87 463d 9577 b63a 0fb3 0dbc
000000a0: dbed c8bc 298b 14bd 9d7f 48bc c795 1eb9
000000b0: bc30 1b3c aed6 97bd 5f85 613b 0f17 45bc
000000c0: b3e2 94bc f377 73bc d7dd 1cbd c3c2 9f3c
000000d0: 4839 803c 2513 db3b c109 b8bc 1cf7 ddbc
000000e0: dd77 4f3c ae25 fabb 5746 d0bc b254 6a3d
000000f0: 49b8 0c3d 551b 35bd a7a9 853b f9d7 8ebc
00000100: 119d 3abc a1d2 063c bdbb b23a 72a7 5ebd
00000110: 038f 023c 9783 0ebd dea8 dfbb 16c0 1dbd
00000120: 5e82 aabb 76a2 60bb dfdd 37bc c2c1 0b3c
00000130: 2269 4e3d 7140 e93c 9acb 62bc d839 38bd
00000140: 9a11 6abc d72e e4bc 21f4 b3bb c295 43bd
00000150: 4ed5 edbd 1c35 0fbd cf1f e0bc 8bc9 47bd
00000160: bba8 31be ca72 73bd c079 1c3b 543b 99bc
00000170: 9c6b f0ba 0139 d43a d923 58bc f9ae 6ebd
00000180: 8c0d 19bd 1dcd 66bc b774 103c 9c58 f3bd
00000190: 2763 873c 92e2 103d b914 5c3c 3a73 de3c
000001a0: c42d cebb 7e03 70bc f336 59bd 3356 853b
000001b0: f9d0 813a 544e 36bd 482b 933b c99f 673d
000001c0: 19ce 1fbd d32a 1d3c 809f 67bd 3ef1 d13a
000001d0: eb71 043c be24 ba3c 0ce0 33bd 1ea0 8dbd
000001e0: 329f 69bb eaad 983c 9981 afbc 3381 3cbd
000001f0: 00be 8a3c 911a c1bd 66a3 1dbc 43bc 063b
00000200: 3d5a 7bbc b563 76bd 1b57 27bb 7374 98bc
00000210: b2a7 10bd ec63 72bc 3ec4 99bc 7b7e 44b9
00000220: aba1 013d 0b70 99bb c9c3 97bd e247 9e3c
00000230: 4aba b4bd f789 8bbd 899e 5bbd 3f49 15bc
00000240: d640 00bd 05c9 10bd 1eeb fbbc d58d 27bd
00000250: b664 823d 9c8e c03b be47 2c3d 410d 10bd
00000260: d0d6 2cbd b91b ae38 20ac 1a3b 74df 20bd
00000270: f13d d0bc e5fa 90bd ad0b 40bd fe39 08bd
00000280: e2a1 67bd 3616 56bd ff5b 6ebd ebd9 a13c
00000290: 5ec0 2a3c e0fc a9bc 0bd5 a23b e827 463c
000002a0: ff36 f93b c308 86bd 7935 b33c 5ea6 a9bc
000002b0: cb13 32bd 02aa 823b 7e13 b43c ca9b 1dbc
000002c0: f746 233c 19f7 63bc 8099 d4bc b31a 913c
000002d0: 08c5 1bbd 10b7 c33b 3078 023d 7c1a 3ebc
000002e0: 952e 323d c454 2ebd 43be 38bd 71c9 81bd
000002f0: dce7 ecbc 012d 6abd e8f8 26bc 8218 13bd
00000300: 1cd7 813c 221d 86bc ca9f f1bd b19c 13bd
00000310: dfa6 4cbd ba9c 44bc 7b74 313a 7618 8d3c
00000320: 1907 18bd 50d0 d3bb 2c05 d0bc ba14 20bd
00000330: a9b7 10bd 661f cbbb 070b ecbc cf64 efbc
00000340: 8c43 0a3d 3567 2b3c 329d 1fbd 009f 0a3c
00000350: 474a 5abc 84f7 debc 1d1c 083b 01ec 8bbd
00000360: fcba 24ba 786b 9fbd 8ab4 ebb9 c1c9 0bbd
00000370: dd22 813c 0306 9fbd ac20 dd3b 8c58 6ebd
00000380: 9ec4 b3bd 1acd b9bd 34a2 c63b 8f12 07bd
00000390: abed 83bd ccbb a2ba 8447 103c 7812 073b
000003a0: 62a1 303b 6796 133c 04e9 e9bb 9743 98ba
000003b0: 3b23 e1bc f767 63bc 0b13 4f3c 0bf5 403c
000003c0: 9816 6dbc dbda 5dbd e2a1 993d ad8c 17bd
000003d0: 1c38 dc3d 243d 45bd e540 2d3d a533 463b
000003e0: aee6 9d3c 6226 8c3b 32f4 093d cb5f 95ba
000003f0: 4548 8c3c a700 15bd 02ec e93c 7a7b 4bbd
-0.0060747517 -0.0009923492 -0.056803845 0.028991025 -0.016102323 -0.031015523 0.003707257 -0.055793054
0.015837763 -0.002523502 0.02352111 0.006739159 0.027295608 0.010089898 0.013674599 -0.052891947
0.00980653 0.035347298 0.014098055 -0.0021885375 0.019566054 0.0075880047 0.0074349553 0.040291715
0.019229677 0.044540003 0.04245045 0.047557388 -0.073405 0.010550466 0.011676288 -0.018368065
0.025334304 -0.006450904 0.043277014 -0.0065451497 -0.008023053 0.048468757 0.0013921136 -0.008648648
-0.02452748 -0.036265526 -0.012237457 -0.0001512385 0.009472068 -0.07413994 0.003441177 -0.012029423
-0.018174505 -0.014860141 -0.0382975 0.01950205 0.015652314 0.006685632 -0.022465589 -0.02709537
0.012662855 -0.0076338863 -0.025424166 0.057209678 0.034355436 -0.04421552 0.004079062 -0.017436968
-0.011389987 0.008228929 0.0013636273 -0.054358907 0.007968667 -0.034793463 -0.0068255505 -0.038513266
-0.0052035293 -0.0034276522 -0.011222332 0.008530082 0.05039323 0.02847311 -0.013842488 -0.04497704
-0.014286423 -0.027854366 -0.005491749 -0.047750242 -0.1161295 -0.03496276 -0.027358918 -0.04877619
-0.17349522 -0.059435643 0.002387628 -0.018705048 -0.0018342617 0.0016191305 -0.0131921405 -0.058272336
-0.037366435 -0.014086989 0.0088168895 -0.11882135 0.016526772 0.035372324 0.013432675 0.027154554
-0.006292077 -0.01464927 -0.05303092 0.0040691136 0.0009904198 -0.044508293 0.0044912435 0.056548867
-0.03901491 0.00959273 -0.056548595 0.001601733 0.008083801 0.022722598 -0.04391484 -0.069153056
-0.0035647866 0.018637616 -0.021424102 -0.04602165 0.016936302 -0.09428895 -0.009621477 0.002055899
-0.015341339 -0.06015368 -0.0025534097 -0.018610215 -0.035316177 -0.014794331 -0.018770333 -0.00018739134
0.03164832 -0.004682546 -0.0741039 0.019321386 -0.08824594 -0.06813424 -0.053617988 -0.0091117015
-0.031311832 -0.035347957 -0.030751761 -0.040906746 0.06366865 0.0058763754 0.042060606 -0.03516889
-0.04219705 8.30213e-05 0.002360113 -0.0392756 -0.025420161 -0.07079104 -0.046886135 -0.03325843
-0.056550868 -0.052267276 -0.058193203 0.019757232 0.0104218405 -0.020750463 0.0049692444 0.012094475
0.007605433 -0.0654464 0.021876084 -0.020709213 -0.043475907 0.0039875517 0.02198195 -0.009619663
0.00996565 -0.013913893 -0.0259521 0.017712926 -0.0380297 0.0059727505 0.0318529 -0.011602994
0.043501455 -0.042561308 -0.045103323 -0.0633725 -0.028919153 -0.057171825 -0.01019118 -0.035912044
0.015849642 -0.016371313 -0.117980555 -0.036038104 -0.04996383 -0.012000257 0.0006769371 0.017223578
-0.037116144 -0.006464042 -0.025393091 -0.039082266 -0.035331402 -0.0061988113 -0.028813852 -0.029222874
0.033755824 0.010461618 -0.038968273 0.00846076 -0.013323373 -0.027217634 0.002076871 -0.068321235
-0.00062839664 -0.0778417 -0.00044957205 -0.034127954 0.015763694 -0.077648185 0.0067482796 -0.058189914
-0.08777736 -0.09072323 0.0060618166 -0.032976683 -0.06441816 -0.0012415587 0.008806113 0.0020610373
0.002695166 0.009008027 -0.0071383733 -0.0011616823 -0.02748262 -0.013879768 0.012638818 0.011777173
-0.014470719 -0.054163795 0.0750158 -0.036999393 0.107528895 -0.04815401 0.042298216 0.0030243185
0.019275036 0.0042770365 0.03368015 -0.0011396346 0.017124305 -0.036377575 0.02855492 -0.049678303
